{"config": {"input_layers": [["input_2", 0, 0]], "name": "model_1", "layers": [{"config": {"batch_input_shape": [null, null, null, 3], "dtype": "float32", "sparse": false, "name": "input_2"}, "inbound_nodes": [], "class_name": "InputLayer", "name": "input_2"}, {"config": {"padding": [[3, 3], [3, 3]], "trainable": false, "name": "conv1_pad", "data_format": "channels_last"}, "inbound_nodes": [[["input_2", 0, 0, {}]]], "class_name": "ZeroPadding2D", "name": "conv1_pad"}, {"config": {"use_bias": true, "kernel_size": [7, 7], "activity_regularizer": null, "name": "conv1", "bias_constraint": null, "kernel_initializer": {"config": {"scale": 2.0, "mode": "fan_in", "seed": null, "distribution": "normal"}, "class_name": "VarianceScaling"}, "padding": "valid", "filters": 64, "trainable": false, "strides": [2, 2], "data_format": "channels_last", "dilation_rate": [1, 1], "kernel_regularizer": null, "bias_regularizer": null, "bias_initializer": {"config": {}, "class_name": "Zeros"}, "kernel_constraint": null, "activation": "linear"}, "inbound_nodes": [[["conv1_pad", 0, 0, {}]]], "class_name": "Conv2D", "name": "conv1"}, {"config": {"scale": true, "beta_initializer": {"config": {}, "class_name": "Zeros"}, "center": true, "gamma_constraint": null, "momentum": 0.99, "gamma_initializer": {"config": {}, "class_name": "Ones"}, "moving_variance_initializer": {"config": {}, "class_name": "Ones"}, "gamma_regularizer": null, "epsilon": 0.001, "trainable": false, "beta_regularizer": null, "beta_constraint": null, "axis": 3, "name": "bn_conv1", "moving_mean_initializer": {"config": {}, "class_name": "Zeros"}}, "inbound_nodes": [[["conv1", 0, 0, {}]]], "class_name": "BatchNormalization", "name": "bn_conv1"}, {"config": {"trainable": false, "name": "activation_95", "activation": "relu"}, "inbound_nodes": [[["bn_conv1", 0, 0, {}]]], "class_name": "Activation", "name": "activation_95"}, {"config": {"padding": [[1, 1], [1, 1]], "trainable": false, "name": "pool1_pad", "data_format": "channels_last"}, "inbound_nodes": [[["activation_95", 0, 0, {}]]], "class_name": "ZeroPadding2D", "name": "pool1_pad"}, {"config": {"padding": "valid", "trainable": false, "strides": [2, 2], "data_format": "channels_last", "name": "max_pooling2d_5", "pool_size": [3, 3]}, "inbound_nodes": [[["pool1_pad", 0, 0, {}]]], "class_name": "MaxPooling2D", "name": "max_pooling2d_5"}, {"config": {"use_bias": true, "kernel_size": [1, 1], "activity_regularizer": null, "name": "res2a_branch2a", "bias_constraint": null, "kernel_initializer": {"config": {"scale": 2.0, "mode": "fan_in", "seed": null, "distribution": "normal"}, "class_name": "VarianceScaling"}, "padding": "valid", "filters": 64, "trainable": false, "strides": [1, 1], "data_format": "channels_last", "dilation_rate": [1, 1], "kernel_regularizer": null, "bias_regularizer": null, "bias_initializer": {"config": {}, "class_name": "Zeros"}, "kernel_constraint": null, "activation": "linear"}, "inbound_nodes": [[["max_pooling2d_5", 0, 0, {}]]], "class_name": "Conv2D", "name": "res2a_branch2a"}, {"config": {"scale": true, "beta_initializer": {"config": {}, "class_name": "Zeros"}, "center": true, "gamma_constraint": null, "momentum": 0.99, "gamma_initializer": {"config": {}, "class_name": "Ones"}, "moving_variance_initializer": {"config": {}, "class_name": "Ones"}, "gamma_regularizer": null, "epsilon": 0.001, "trainable": false, "beta_regularizer": null, "beta_constraint": null, "axis": 3, "name": "bn2a_branch2a", "moving_mean_initializer": {"config": {}, "class_name": "Zeros"}}, "inbound_nodes": [[["res2a_branch2a", 0, 0, {}]]], "class_name": "BatchNormalization", "name": "bn2a_branch2a"}, {"config": {"trainable": false, "name": "activation_96", "activation": "relu"}, "inbound_nodes": [[["bn2a_branch2a", 0, 0, {}]]], "class_name": "Activation", "name": "activation_96"}, {"config": {"use_bias": true, "kernel_size": [3, 3], "activity_regularizer": null, "name": "res2a_branch2b", "bias_constraint": null, "kernel_initializer": {"config": {"scale": 2.0, "mode": "fan_in", "seed": null, "distribution": "normal"}, "class_name": "VarianceScaling"}, "padding": "same", "filters": 64, "trainable": false, "strides": [1, 1], "data_format": "channels_last", "dilation_rate": [1, 1], "kernel_regularizer": null, "bias_regularizer": null, "bias_initializer": {"config": {}, "class_name": "Zeros"}, "kernel_constraint": null, "activation": "linear"}, "inbound_nodes": [[["activation_96", 0, 0, {}]]], "class_name": "Conv2D", "name": "res2a_branch2b"}, {"config": {"scale": true, "beta_initializer": {"config": {}, "class_name": "Zeros"}, "center": true, "gamma_constraint": null, "momentum": 0.99, "gamma_initializer": {"config": {}, "class_name": "Ones"}, "moving_variance_initializer": {"config": {}, "class_name": "Ones"}, "gamma_regularizer": null, "epsilon": 0.001, "trainable": false, "beta_regularizer": null, "beta_constraint": null, "axis": 3, "name": "bn2a_branch2b", "moving_mean_initializer": {"config": {}, "class_name": "Zeros"}}, "inbound_nodes": [[["res2a_branch2b", 0, 0, {}]]], "class_name": "BatchNormalization", "name": "bn2a_branch2b"}, {"config": {"trainable": false, "name": "activation_97", "activation": "relu"}, "inbound_nodes": [[["bn2a_branch2b", 0, 0, {}]]], "class_name": "Activation", "name": "activation_97"}, {"config": {"use_bias": true, "kernel_size": [1, 1], "activity_regularizer": null, "name": "res2a_branch2c", "bias_constraint": null, "kernel_initializer": {"config": {"scale": 2.0, "mode": "fan_in", "seed": null, "distribution": "normal"}, "class_name": "VarianceScaling"}, "padding": "valid", "filters": 256, "trainable": false, "strides": [1, 1], "data_format": "channels_last", "dilation_rate": [1, 1], "kernel_regularizer": null, "bias_regularizer": null, "bias_initializer": {"config": {}, "class_name": "Zeros"}, "kernel_constraint": null, "activation": "linear"}, "inbound_nodes": [[["activation_97", 0, 0, {}]]], "class_name": "Conv2D", "name": "res2a_branch2c"}, {"config": {"use_bias": true, "kernel_size": [1, 1], "activity_regularizer": null, "name": "res2a_branch1", "bias_constraint": null, "kernel_initializer": {"config": {"scale": 2.0, "mode": "fan_in", "seed": null, "distribution": "normal"}, "class_name": "VarianceScaling"}, "padding": "valid", "filters": 256, "trainable": false, "strides": [1, 1], "data_format": "channels_last", "dilation_rate": [1, 1], "kernel_regularizer": null, "bias_regularizer": null, "bias_initializer": {"config": {}, "class_name": "Zeros"}, "kernel_constraint": null, "activation": "linear"}, "inbound_nodes": [[["max_pooling2d_5", 0, 0, {}]]], "class_name": "Conv2D", "name": "res2a_branch1"}, {"config": {"scale": true, "beta_initializer": {"config": {}, "class_name": "Zeros"}, "center": true, "gamma_constraint": null, "momentum": 0.99, "gamma_initializer": {"config": {}, "class_name": "Ones"}, "moving_variance_initializer": {"config": {}, "class_name": "Ones"}, "gamma_regularizer": null, "epsilon": 0.001, "trainable": false, "beta_regularizer": null, "beta_constraint": null, "axis": 3, "name": "bn2a_branch2c", "moving_mean_initializer": {"config": {}, "class_name": "Zeros"}}, "inbound_nodes": [[["res2a_branch2c", 0, 0, {}]]], "class_name": "BatchNormalization", "name": "bn2a_branch2c"}, {"config": {"scale": true, "beta_initializer": {"config": {}, "class_name": "Zeros"}, "center": true, "gamma_constraint": null, "momentum": 0.99, "gamma_initializer": {"config": {}, "class_name": "Ones"}, "moving_variance_initializer": {"config": {}, "class_name": "Ones"}, "gamma_regularizer": null, "epsilon": 0.001, "trainable": false, "beta_regularizer": null, "beta_constraint": null, "axis": 3, "name": "bn2a_branch1", "moving_mean_initializer": {"config": {}, "class_name": "Zeros"}}, "inbound_nodes": [[["res2a_branch1", 0, 0, {}]]], "class_name": "BatchNormalization", "name": "bn2a_branch1"}, {"config": {"trainable": false, "name": "add_1"}, "inbound_nodes": [[["bn2a_branch2c", 0, 0, {}], ["bn2a_branch1", 0, 0, {}]]], "class_name": "Add", "name": "add_1"}, {"config": {"trainable": false, "name": "activation_98", "activation": "relu"}, "inbound_nodes": [[["add_1", 0, 0, {}]]], "class_name": "Activation", "name": "activation_98"}, {"config": {"use_bias": true, "kernel_size": [1, 1], "activity_regularizer": null, "name": "res2b_branch2a", "bias_constraint": null, "kernel_initializer": {"config": {"scale": 2.0, "mode": "fan_in", "seed": null, "distribution": "normal"}, "class_name": "VarianceScaling"}, "padding": "valid", "filters": 64, "trainable": false, "strides": [1, 1], "data_format": "channels_last", "dilation_rate": [1, 1], "kernel_regularizer": null, "bias_regularizer": null, "bias_initializer": {"config": {}, "class_name": "Zeros"}, "kernel_constraint": null, "activation": "linear"}, "inbound_nodes": [[["activation_98", 0, 0, {}]]], "class_name": "Conv2D", "name": "res2b_branch2a"}, {"config": {"scale": true, "beta_initializer": {"config": {}, "class_name": "Zeros"}, "center": true, "gamma_constraint": null, "momentum": 0.99, "gamma_initializer": {"config": {}, "class_name": "Ones"}, "moving_variance_initializer": {"config": {}, "class_name": "Ones"}, "gamma_regularizer": null, "epsilon": 0.001, "trainable": false, "beta_regularizer": null, "beta_constraint": null, "axis": 3, "name": "bn2b_branch2a", "moving_mean_initializer": {"config": {}, "class_name": "Zeros"}}, "inbound_nodes": [[["res2b_branch2a", 0, 0, {}]]], "class_name": "BatchNormalization", "name": "bn2b_branch2a"}, {"config": {"trainable": false, "name": "activation_99", "activation": "relu"}, "inbound_nodes": [[["bn2b_branch2a", 0, 0, {}]]], "class_name": "Activation", "name": "activation_99"}, {"config": {"use_bias": true, "kernel_size": [3, 3], "activity_regularizer": null, "name": "res2b_branch2b", "bias_constraint": null, "kernel_initializer": {"config": {"scale": 2.0, "mode": "fan_in", "seed": null, "distribution": "normal"}, "class_name": "VarianceScaling"}, "padding": "same", "filters": 64, "trainable": false, "strides": [1, 1], "data_format": "channels_last", "dilation_rate": [1, 1], "kernel_regularizer": null, "bias_regularizer": null, "bias_initializer": {"config": {}, "class_name": "Zeros"}, "kernel_constraint": null, "activation": "linear"}, "inbound_nodes": [[["activation_99", 0, 0, {}]]], "class_name": "Conv2D", "name": "res2b_branch2b"}, {"config": {"scale": true, "beta_initializer": {"config": {}, "class_name": "Zeros"}, "center": true, "gamma_constraint": null, "momentum": 0.99, "gamma_initializer": {"config": {}, "class_name": "Ones"}, "moving_variance_initializer": {"config": {}, "class_name": "Ones"}, "gamma_regularizer": null, "epsilon": 0.001, "trainable": false, "beta_regularizer": null, "beta_constraint": null, "axis": 3, "name": "bn2b_branch2b", "moving_mean_initializer": {"config": {}, "class_name": "Zeros"}}, "inbound_nodes": [[["res2b_branch2b", 0, 0, {}]]], "class_name": "BatchNormalization", "name": "bn2b_branch2b"}, {"config": {"trainable": false, "name": "activation_100", "activation": "relu"}, "inbound_nodes": [[["bn2b_branch2b", 0, 0, {}]]], "class_name": "Activation", "name": "activation_100"}, {"config": {"use_bias": true, "kernel_size": [1, 1], "activity_regularizer": null, "name": "res2b_branch2c", "bias_constraint": null, "kernel_initializer": {"config": {"scale": 2.0, "mode": "fan_in", "seed": null, "distribution": "normal"}, "class_name": "VarianceScaling"}, "padding": "valid", "filters": 256, "trainable": false, "strides": [1, 1], "data_format": "channels_last", "dilation_rate": [1, 1], "kernel_regularizer": null, "bias_regularizer": null, "bias_initializer": {"config": {}, "class_name": "Zeros"}, "kernel_constraint": null, "activation": "linear"}, "inbound_nodes": [[["activation_100", 0, 0, {}]]], "class_name": "Conv2D", "name": "res2b_branch2c"}, {"config": {"scale": true, "beta_initializer": {"config": {}, "class_name": "Zeros"}, "center": true, "gamma_constraint": null, "momentum": 0.99, "gamma_initializer": {"config": {}, "class_name": "Ones"}, "moving_variance_initializer": {"config": {}, "class_name": "Ones"}, "gamma_regularizer": null, "epsilon": 0.001, "trainable": false, "beta_regularizer": null, "beta_constraint": null, "axis": 3, "name": "bn2b_branch2c", "moving_mean_initializer": {"config": {}, "class_name": "Zeros"}}, "inbound_nodes": [[["res2b_branch2c", 0, 0, {}]]], "class_name": "BatchNormalization", "name": "bn2b_branch2c"}, {"config": {"trainable": false, "name": "add_2"}, "inbound_nodes": [[["bn2b_branch2c", 0, 0, {}], ["activation_98", 0, 0, {}]]], "class_name": "Add", "name": "add_2"}, {"config": {"trainable": false, "name": "activation_101", "activation": "relu"}, "inbound_nodes": [[["add_2", 0, 0, {}]]], "class_name": "Activation", "name": "activation_101"}, {"config": {"use_bias": true, "kernel_size": [1, 1], "activity_regularizer": null, "name": "res2c_branch2a", "bias_constraint": null, "kernel_initializer": {"config": {"scale": 2.0, "mode": "fan_in", "seed": null, "distribution": "normal"}, "class_name": "VarianceScaling"}, "padding": "valid", "filters": 64, "trainable": false, "strides": [1, 1], "data_format": "channels_last", "dilation_rate": [1, 1], "kernel_regularizer": null, "bias_regularizer": null, "bias_initializer": {"config": {}, "class_name": "Zeros"}, "kernel_constraint": null, "activation": "linear"}, "inbound_nodes": [[["activation_101", 0, 0, {}]]], "class_name": "Conv2D", "name": "res2c_branch2a"}, {"config": {"scale": true, "beta_initializer": {"config": {}, "class_name": "Zeros"}, "center": true, "gamma_constraint": null, "momentum": 0.99, "gamma_initializer": {"config": {}, "class_name": "Ones"}, "moving_variance_initializer": {"config": {}, "class_name": "Ones"}, "gamma_regularizer": null, "epsilon": 0.001, "trainable": false, "beta_regularizer": null, "beta_constraint": null, "axis": 3, "name": "bn2c_branch2a", "moving_mean_initializer": {"config": {}, "class_name": "Zeros"}}, "inbound_nodes": [[["res2c_branch2a", 0, 0, {}]]], "class_name": "BatchNormalization", "name": "bn2c_branch2a"}, {"config": {"trainable": false, "name": "activation_102", "activation": "relu"}, "inbound_nodes": [[["bn2c_branch2a", 0, 0, {}]]], "class_name": "Activation", "name": "activation_102"}, {"config": {"use_bias": true, "kernel_size": [3, 3], "activity_regularizer": null, "name": "res2c_branch2b", "bias_constraint": null, "kernel_initializer": {"config": {"scale": 2.0, "mode": "fan_in", "seed": null, "distribution": "normal"}, "class_name": "VarianceScaling"}, "padding": "same", "filters": 64, "trainable": false, "strides": [1, 1], "data_format": "channels_last", "dilation_rate": [1, 1], "kernel_regularizer": null, "bias_regularizer": null, "bias_initializer": {"config": {}, "class_name": "Zeros"}, "kernel_constraint": null, "activation": "linear"}, "inbound_nodes": [[["activation_102", 0, 0, {}]]], "class_name": "Conv2D", "name": "res2c_branch2b"}, {"config": {"scale": true, "beta_initializer": {"config": {}, "class_name": "Zeros"}, "center": true, "gamma_constraint": null, "momentum": 0.99, "gamma_initializer": {"config": {}, "class_name": "Ones"}, "moving_variance_initializer": {"config": {}, "class_name": "Ones"}, "gamma_regularizer": null, "epsilon": 0.001, "trainable": false, "beta_regularizer": null, "beta_constraint": null, "axis": 3, "name": "bn2c_branch2b", "moving_mean_initializer": {"config": {}, "class_name": "Zeros"}}, "inbound_nodes": [[["res2c_branch2b", 0, 0, {}]]], "class_name": "BatchNormalization", "name": "bn2c_branch2b"}, {"config": {"trainable": false, "name": "activation_103", "activation": "relu"}, "inbound_nodes": [[["bn2c_branch2b", 0, 0, {}]]], "class_name": "Activation", "name": "activation_103"}, {"config": {"use_bias": true, "kernel_size": [1, 1], "activity_regularizer": null, "name": "res2c_branch2c", "bias_constraint": null, "kernel_initializer": {"config": {"scale": 2.0, "mode": "fan_in", "seed": null, "distribution": "normal"}, "class_name": "VarianceScaling"}, "padding": "valid", "filters": 256, "trainable": false, "strides": [1, 1], "data_format": "channels_last", "dilation_rate": [1, 1], "kernel_regularizer": null, "bias_regularizer": null, "bias_initializer": {"config": {}, "class_name": "Zeros"}, "kernel_constraint": null, "activation": "linear"}, "inbound_nodes": [[["activation_103", 0, 0, {}]]], "class_name": "Conv2D", "name": "res2c_branch2c"}, {"config": {"scale": true, "beta_initializer": {"config": {}, "class_name": "Zeros"}, "center": true, "gamma_constraint": null, "momentum": 0.99, "gamma_initializer": {"config": {}, "class_name": "Ones"}, "moving_variance_initializer": {"config": {}, "class_name": "Ones"}, "gamma_regularizer": null, "epsilon": 0.001, "trainable": false, "beta_regularizer": null, "beta_constraint": null, "axis": 3, "name": "bn2c_branch2c", "moving_mean_initializer": {"config": {}, "class_name": "Zeros"}}, "inbound_nodes": [[["res2c_branch2c", 0, 0, {}]]], "class_name": "BatchNormalization", "name": "bn2c_branch2c"}, {"config": {"trainable": false, "name": "add_3"}, "inbound_nodes": [[["bn2c_branch2c", 0, 0, {}], ["activation_101", 0, 0, {}]]], "class_name": "Add", "name": "add_3"}, {"config": {"trainable": false, "name": "activation_104", "activation": "relu"}, "inbound_nodes": [[["add_3", 0, 0, {}]]], "class_name": "Activation", "name": "activation_104"}, {"config": {"use_bias": true, "kernel_size": [1, 1], "activity_regularizer": null, "name": "res3a_branch2a", "bias_constraint": null, "kernel_initializer": {"config": {"scale": 2.0, "mode": "fan_in", "seed": null, "distribution": "normal"}, "class_name": "VarianceScaling"}, "padding": "valid", "filters": 128, "trainable": false, "strides": [2, 2], "data_format": "channels_last", "dilation_rate": [1, 1], "kernel_regularizer": null, "bias_regularizer": null, "bias_initializer": {"config": {}, "class_name": "Zeros"}, "kernel_constraint": null, "activation": "linear"}, "inbound_nodes": [[["activation_104", 0, 0, {}]]], "class_name": "Conv2D", "name": "res3a_branch2a"}, {"config": {"scale": true, "beta_initializer": {"config": {}, "class_name": "Zeros"}, "center": true, "gamma_constraint": null, "momentum": 0.99, "gamma_initializer": {"config": {}, "class_name": "Ones"}, "moving_variance_initializer": {"config": {}, "class_name": "Ones"}, "gamma_regularizer": null, "epsilon": 0.001, "trainable": false, "beta_regularizer": null, "beta_constraint": null, "axis": 3, "name": "bn3a_branch2a", "moving_mean_initializer": {"config": {}, "class_name": "Zeros"}}, "inbound_nodes": [[["res3a_branch2a", 0, 0, {}]]], "class_name": "BatchNormalization", "name": "bn3a_branch2a"}, {"config": {"trainable": false, "name": "activation_105", "activation": "relu"}, "inbound_nodes": [[["bn3a_branch2a", 0, 0, {}]]], "class_name": "Activation", "name": "activation_105"}, {"config": {"use_bias": true, "kernel_size": [3, 3], "activity_regularizer": null, "name": "res3a_branch2b", "bias_constraint": null, "kernel_initializer": {"config": {"scale": 2.0, "mode": "fan_in", "seed": null, "distribution": "normal"}, "class_name": "VarianceScaling"}, "padding": "same", "filters": 128, "trainable": false, "strides": [1, 1], "data_format": "channels_last", "dilation_rate": [1, 1], "kernel_regularizer": null, "bias_regularizer": null, "bias_initializer": {"config": {}, "class_name": "Zeros"}, "kernel_constraint": null, "activation": "linear"}, "inbound_nodes": [[["activation_105", 0, 0, {}]]], "class_name": "Conv2D", "name": "res3a_branch2b"}, {"config": {"scale": true, "beta_initializer": {"config": {}, "class_name": "Zeros"}, "center": true, "gamma_constraint": null, "momentum": 0.99, "gamma_initializer": {"config": {}, "class_name": "Ones"}, "moving_variance_initializer": {"config": {}, "class_name": "Ones"}, "gamma_regularizer": null, "epsilon": 0.001, "trainable": false, "beta_regularizer": null, "beta_constraint": null, "axis": 3, "name": "bn3a_branch2b", "moving_mean_initializer": {"config": {}, "class_name": "Zeros"}}, "inbound_nodes": [[["res3a_branch2b", 0, 0, {}]]], "class_name": "BatchNormalization", "name": "bn3a_branch2b"}, {"config": {"trainable": false, "name": "activation_106", "activation": "relu"}, "inbound_nodes": [[["bn3a_branch2b", 0, 0, {}]]], "class_name": "Activation", "name": "activation_106"}, {"config": {"use_bias": true, "kernel_size": [1, 1], "activity_regularizer": null, "name": "res3a_branch2c", "bias_constraint": null, "kernel_initializer": {"config": {"scale": 2.0, "mode": "fan_in", "seed": null, "distribution": "normal"}, "class_name": "VarianceScaling"}, "padding": "valid", "filters": 512, "trainable": false, "strides": [1, 1], "data_format": "channels_last", "dilation_rate": [1, 1], "kernel_regularizer": null, "bias_regularizer": null, "bias_initializer": {"config": {}, "class_name": "Zeros"}, "kernel_constraint": null, "activation": "linear"}, "inbound_nodes": [[["activation_106", 0, 0, {}]]], "class_name": "Conv2D", "name": "res3a_branch2c"}, {"config": {"use_bias": true, "kernel_size": [1, 1], "activity_regularizer": null, "name": "res3a_branch1", "bias_constraint": null, "kernel_initializer": {"config": {"scale": 2.0, "mode": "fan_in", "seed": null, "distribution": "normal"}, "class_name": "VarianceScaling"}, "padding": "valid", "filters": 512, "trainable": false, "strides": [2, 2], "data_format": "channels_last", "dilation_rate": [1, 1], "kernel_regularizer": null, "bias_regularizer": null, "bias_initializer": {"config": {}, "class_name": "Zeros"}, "kernel_constraint": null, "activation": "linear"}, "inbound_nodes": [[["activation_104", 0, 0, {}]]], "class_name": "Conv2D", "name": "res3a_branch1"}, {"config": {"scale": true, "beta_initializer": {"config": {}, "class_name": "Zeros"}, "center": true, "gamma_constraint": null, "momentum": 0.99, "gamma_initializer": {"config": {}, "class_name": "Ones"}, "moving_variance_initializer": {"config": {}, "class_name": "Ones"}, "gamma_regularizer": null, "epsilon": 0.001, "trainable": false, "beta_regularizer": null, "beta_constraint": null, "axis": 3, "name": "bn3a_branch2c", "moving_mean_initializer": {"config": {}, "class_name": "Zeros"}}, "inbound_nodes": [[["res3a_branch2c", 0, 0, {}]]], "class_name": "BatchNormalization", "name": "bn3a_branch2c"}, {"config": {"scale": true, "beta_initializer": {"config": {}, "class_name": "Zeros"}, "center": true, "gamma_constraint": null, "momentum": 0.99, "gamma_initializer": {"config": {}, "class_name": "Ones"}, "moving_variance_initializer": {"config": {}, "class_name": "Ones"}, "gamma_regularizer": null, "epsilon": 0.001, "trainable": false, "beta_regularizer": null, "beta_constraint": null, "axis": 3, "name": "bn3a_branch1", "moving_mean_initializer": {"config": {}, "class_name": "Zeros"}}, "inbound_nodes": [[["res3a_branch1", 0, 0, {}]]], "class_name": "BatchNormalization", "name": "bn3a_branch1"}, {"config": {"trainable": false, "name": "add_4"}, "inbound_nodes": [[["bn3a_branch2c", 0, 0, {}], ["bn3a_branch1", 0, 0, {}]]], "class_name": "Add", "name": "add_4"}, {"config": {"trainable": false, "name": "activation_107", "activation": "relu"}, "inbound_nodes": [[["add_4", 0, 0, {}]]], "class_name": "Activation", "name": "activation_107"}, {"config": {"use_bias": true, "kernel_size": [1, 1], "activity_regularizer": null, "name": "res3b_branch2a", "bias_constraint": null, "kernel_initializer": {"config": {"scale": 2.0, "mode": "fan_in", "seed": null, "distribution": "normal"}, "class_name": "VarianceScaling"}, "padding": "valid", "filters": 128, "trainable": false, "strides": [1, 1], "data_format": "channels_last", "dilation_rate": [1, 1], "kernel_regularizer": null, "bias_regularizer": null, "bias_initializer": {"config": {}, "class_name": "Zeros"}, "kernel_constraint": null, "activation": "linear"}, "inbound_nodes": [[["activation_107", 0, 0, {}]]], "class_name": "Conv2D", "name": "res3b_branch2a"}, {"config": {"scale": true, "beta_initializer": {"config": {}, "class_name": "Zeros"}, "center": true, "gamma_constraint": null, "momentum": 0.99, "gamma_initializer": {"config": {}, "class_name": "Ones"}, "moving_variance_initializer": {"config": {}, "class_name": "Ones"}, "gamma_regularizer": null, "epsilon": 0.001, "trainable": false, "beta_regularizer": null, "beta_constraint": null, "axis": 3, "name": "bn3b_branch2a", "moving_mean_initializer": {"config": {}, "class_name": "Zeros"}}, "inbound_nodes": [[["res3b_branch2a", 0, 0, {}]]], "class_name": "BatchNormalization", "name": "bn3b_branch2a"}, {"config": {"trainable": false, "name": "activation_108", "activation": "relu"}, "inbound_nodes": [[["bn3b_branch2a", 0, 0, {}]]], "class_name": "Activation", "name": "activation_108"}, {"config": {"use_bias": true, "kernel_size": [3, 3], "activity_regularizer": null, "name": "res3b_branch2b", "bias_constraint": null, "kernel_initializer": {"config": {"scale": 2.0, "mode": "fan_in", "seed": null, "distribution": "normal"}, "class_name": "VarianceScaling"}, "padding": "same", "filters": 128, "trainable": false, "strides": [1, 1], "data_format": "channels_last", "dilation_rate": [1, 1], "kernel_regularizer": null, "bias_regularizer": null, "bias_initializer": {"config": {}, "class_name": "Zeros"}, "kernel_constraint": null, "activation": "linear"}, "inbound_nodes": [[["activation_108", 0, 0, {}]]], "class_name": "Conv2D", "name": "res3b_branch2b"}, {"config": {"scale": true, "beta_initializer": {"config": {}, "class_name": "Zeros"}, "center": true, "gamma_constraint": null, "momentum": 0.99, "gamma_initializer": {"config": {}, "class_name": "Ones"}, "moving_variance_initializer": {"config": {}, "class_name": "Ones"}, "gamma_regularizer": null, "epsilon": 0.001, "trainable": false, "beta_regularizer": null, "beta_constraint": null, "axis": 3, "name": "bn3b_branch2b", "moving_mean_initializer": {"config": {}, "class_name": "Zeros"}}, "inbound_nodes": [[["res3b_branch2b", 0, 0, {}]]], "class_name": "BatchNormalization", "name": "bn3b_branch2b"}, {"config": {"trainable": false, "name": "activation_109", "activation": "relu"}, "inbound_nodes": [[["bn3b_branch2b", 0, 0, {}]]], "class_name": "Activation", "name": "activation_109"}, {"config": {"use_bias": true, "kernel_size": [1, 1], "activity_regularizer": null, "name": "res3b_branch2c", "bias_constraint": null, "kernel_initializer": {"config": {"scale": 2.0, "mode": "fan_in", "seed": null, "distribution": "normal"}, "class_name": "VarianceScaling"}, "padding": "valid", "filters": 512, "trainable": false, "strides": [1, 1], "data_format": "channels_last", "dilation_rate": [1, 1], "kernel_regularizer": null, "bias_regularizer": null, "bias_initializer": {"config": {}, "class_name": "Zeros"}, "kernel_constraint": null, "activation": "linear"}, "inbound_nodes": [[["activation_109", 0, 0, {}]]], "class_name": "Conv2D", "name": "res3b_branch2c"}, {"config": {"scale": true, "beta_initializer": {"config": {}, "class_name": "Zeros"}, "center": true, "gamma_constraint": null, "momentum": 0.99, "gamma_initializer": {"config": {}, "class_name": "Ones"}, "moving_variance_initializer": {"config": {}, "class_name": "Ones"}, "gamma_regularizer": null, "epsilon": 0.001, "trainable": false, "beta_regularizer": null, "beta_constraint": null, "axis": 3, "name": "bn3b_branch2c", "moving_mean_initializer": {"config": {}, "class_name": "Zeros"}}, "inbound_nodes": [[["res3b_branch2c", 0, 0, {}]]], "class_name": "BatchNormalization", "name": "bn3b_branch2c"}, {"config": {"trainable": false, "name": "add_5"}, "inbound_nodes": [[["bn3b_branch2c", 0, 0, {}], ["activation_107", 0, 0, {}]]], "class_name": "Add", "name": "add_5"}, {"config": {"trainable": false, "name": "activation_110", "activation": "relu"}, "inbound_nodes": [[["add_5", 0, 0, {}]]], "class_name": "Activation", "name": "activation_110"}, {"config": {"use_bias": true, "kernel_size": [1, 1], "activity_regularizer": null, "name": "res3c_branch2a", "bias_constraint": null, "kernel_initializer": {"config": {"scale": 2.0, "mode": "fan_in", "seed": null, "distribution": "normal"}, "class_name": "VarianceScaling"}, "padding": "valid", "filters": 128, "trainable": false, "strides": [1, 1], "data_format": "channels_last", "dilation_rate": [1, 1], "kernel_regularizer": null, "bias_regularizer": null, "bias_initializer": {"config": {}, "class_name": "Zeros"}, "kernel_constraint": null, "activation": "linear"}, "inbound_nodes": [[["activation_110", 0, 0, {}]]], "class_name": "Conv2D", "name": "res3c_branch2a"}, {"config": {"scale": true, "beta_initializer": {"config": {}, "class_name": "Zeros"}, "center": true, "gamma_constraint": null, "momentum": 0.99, "gamma_initializer": {"config": {}, "class_name": "Ones"}, "moving_variance_initializer": {"config": {}, "class_name": "Ones"}, "gamma_regularizer": null, "epsilon": 0.001, "trainable": false, "beta_regularizer": null, "beta_constraint": null, "axis": 3, "name": "bn3c_branch2a", "moving_mean_initializer": {"config": {}, "class_name": "Zeros"}}, "inbound_nodes": [[["res3c_branch2a", 0, 0, {}]]], "class_name": "BatchNormalization", "name": "bn3c_branch2a"}, {"config": {"trainable": false, "name": "activation_111", "activation": "relu"}, "inbound_nodes": [[["bn3c_branch2a", 0, 0, {}]]], "class_name": "Activation", "name": "activation_111"}, {"config": {"use_bias": true, "kernel_size": [3, 3], "activity_regularizer": null, "name": "res3c_branch2b", "bias_constraint": null, "kernel_initializer": {"config": {"scale": 2.0, "mode": "fan_in", "seed": null, "distribution": "normal"}, "class_name": "VarianceScaling"}, "padding": "same", "filters": 128, "trainable": false, "strides": [1, 1], "data_format": "channels_last", "dilation_rate": [1, 1], "kernel_regularizer": null, "bias_regularizer": null, "bias_initializer": {"config": {}, "class_name": "Zeros"}, "kernel_constraint": null, "activation": "linear"}, "inbound_nodes": [[["activation_111", 0, 0, {}]]], "class_name": "Conv2D", "name": "res3c_branch2b"}, {"config": {"scale": true, "beta_initializer": {"config": {}, "class_name": "Zeros"}, "center": true, "gamma_constraint": null, "momentum": 0.99, "gamma_initializer": {"config": {}, "class_name": "Ones"}, "moving_variance_initializer": {"config": {}, "class_name": "Ones"}, "gamma_regularizer": null, "epsilon": 0.001, "trainable": false, "beta_regularizer": null, "beta_constraint": null, "axis": 3, "name": "bn3c_branch2b", "moving_mean_initializer": {"config": {}, "class_name": "Zeros"}}, "inbound_nodes": [[["res3c_branch2b", 0, 0, {}]]], "class_name": "BatchNormalization", "name": "bn3c_branch2b"}, {"config": {"trainable": false, "name": "activation_112", "activation": "relu"}, "inbound_nodes": [[["bn3c_branch2b", 0, 0, {}]]], "class_name": "Activation", "name": "activation_112"}, {"config": {"use_bias": true, "kernel_size": [1, 1], "activity_regularizer": null, "name": "res3c_branch2c", "bias_constraint": null, "kernel_initializer": {"config": {"scale": 2.0, "mode": "fan_in", "seed": null, "distribution": "normal"}, "class_name": "VarianceScaling"}, "padding": "valid", "filters": 512, "trainable": false, "strides": [1, 1], "data_format": "channels_last", "dilation_rate": [1, 1], "kernel_regularizer": null, "bias_regularizer": null, "bias_initializer": {"config": {}, "class_name": "Zeros"}, "kernel_constraint": null, "activation": "linear"}, "inbound_nodes": [[["activation_112", 0, 0, {}]]], "class_name": "Conv2D", "name": "res3c_branch2c"}, {"config": {"scale": true, "beta_initializer": {"config": {}, "class_name": "Zeros"}, "center": true, "gamma_constraint": null, "momentum": 0.99, "gamma_initializer": {"config": {}, "class_name": "Ones"}, "moving_variance_initializer": {"config": {}, "class_name": "Ones"}, "gamma_regularizer": null, "epsilon": 0.001, "trainable": false, "beta_regularizer": null, "beta_constraint": null, "axis": 3, "name": "bn3c_branch2c", "moving_mean_initializer": {"config": {}, "class_name": "Zeros"}}, "inbound_nodes": [[["res3c_branch2c", 0, 0, {}]]], "class_name": "BatchNormalization", "name": "bn3c_branch2c"}, {"config": {"trainable": false, "name": "add_6"}, "inbound_nodes": [[["bn3c_branch2c", 0, 0, {}], ["activation_110", 0, 0, {}]]], "class_name": "Add", "name": "add_6"}, {"config": {"trainable": false, "name": "activation_113", "activation": "relu"}, "inbound_nodes": [[["add_6", 0, 0, {}]]], "class_name": "Activation", "name": "activation_113"}, {"config": {"use_bias": true, "kernel_size": [1, 1], "activity_regularizer": null, "name": "res3d_branch2a", "bias_constraint": null, "kernel_initializer": {"config": {"scale": 2.0, "mode": "fan_in", "seed": null, "distribution": "normal"}, "class_name": "VarianceScaling"}, "padding": "valid", "filters": 128, "trainable": false, "strides": [1, 1], "data_format": "channels_last", "dilation_rate": [1, 1], "kernel_regularizer": null, "bias_regularizer": null, "bias_initializer": {"config": {}, "class_name": "Zeros"}, "kernel_constraint": null, "activation": "linear"}, "inbound_nodes": [[["activation_113", 0, 0, {}]]], "class_name": "Conv2D", "name": "res3d_branch2a"}, {"config": {"scale": true, "beta_initializer": {"config": {}, "class_name": "Zeros"}, "center": true, "gamma_constraint": null, "momentum": 0.99, "gamma_initializer": {"config": {}, "class_name": "Ones"}, "moving_variance_initializer": {"config": {}, "class_name": "Ones"}, "gamma_regularizer": null, "epsilon": 0.001, "trainable": false, "beta_regularizer": null, "beta_constraint": null, "axis": 3, "name": "bn3d_branch2a", "moving_mean_initializer": {"config": {}, "class_name": "Zeros"}}, "inbound_nodes": [[["res3d_branch2a", 0, 0, {}]]], "class_name": "BatchNormalization", "name": "bn3d_branch2a"}, {"config": {"trainable": false, "name": "activation_114", "activation": "relu"}, "inbound_nodes": [[["bn3d_branch2a", 0, 0, {}]]], "class_name": "Activation", "name": "activation_114"}, {"config": {"use_bias": true, "kernel_size": [3, 3], "activity_regularizer": null, "name": "res3d_branch2b", "bias_constraint": null, "kernel_initializer": {"config": {"scale": 2.0, "mode": "fan_in", "seed": null, "distribution": "normal"}, "class_name": "VarianceScaling"}, "padding": "same", "filters": 128, "trainable": false, "strides": [1, 1], "data_format": "channels_last", "dilation_rate": [1, 1], "kernel_regularizer": null, "bias_regularizer": null, "bias_initializer": {"config": {}, "class_name": "Zeros"}, "kernel_constraint": null, "activation": "linear"}, "inbound_nodes": [[["activation_114", 0, 0, {}]]], "class_name": "Conv2D", "name": "res3d_branch2b"}, {"config": {"scale": true, "beta_initializer": {"config": {}, "class_name": "Zeros"}, "center": true, "gamma_constraint": null, "momentum": 0.99, "gamma_initializer": {"config": {}, "class_name": "Ones"}, "moving_variance_initializer": {"config": {}, "class_name": "Ones"}, "gamma_regularizer": null, "epsilon": 0.001, "trainable": false, "beta_regularizer": null, "beta_constraint": null, "axis": 3, "name": "bn3d_branch2b", "moving_mean_initializer": {"config": {}, "class_name": "Zeros"}}, "inbound_nodes": [[["res3d_branch2b", 0, 0, {}]]], "class_name": "BatchNormalization", "name": "bn3d_branch2b"}, {"config": {"trainable": false, "name": "activation_115", "activation": "relu"}, "inbound_nodes": [[["bn3d_branch2b", 0, 0, {}]]], "class_name": "Activation", "name": "activation_115"}, {"config": {"use_bias": true, "kernel_size": [1, 1], "activity_regularizer": null, "name": "res3d_branch2c", "bias_constraint": null, "kernel_initializer": {"config": {"scale": 2.0, "mode": "fan_in", "seed": null, "distribution": "normal"}, "class_name": "VarianceScaling"}, "padding": "valid", "filters": 512, "trainable": false, "strides": [1, 1], "data_format": "channels_last", "dilation_rate": [1, 1], "kernel_regularizer": null, "bias_regularizer": null, "bias_initializer": {"config": {}, "class_name": "Zeros"}, "kernel_constraint": null, "activation": "linear"}, "inbound_nodes": [[["activation_115", 0, 0, {}]]], "class_name": "Conv2D", "name": "res3d_branch2c"}, {"config": {"scale": true, "beta_initializer": {"config": {}, "class_name": "Zeros"}, "center": true, "gamma_constraint": null, "momentum": 0.99, "gamma_initializer": {"config": {}, "class_name": "Ones"}, "moving_variance_initializer": {"config": {}, "class_name": "Ones"}, "gamma_regularizer": null, "epsilon": 0.001, "trainable": false, "beta_regularizer": null, "beta_constraint": null, "axis": 3, "name": "bn3d_branch2c", "moving_mean_initializer": {"config": {}, "class_name": "Zeros"}}, "inbound_nodes": [[["res3d_branch2c", 0, 0, {}]]], "class_name": "BatchNormalization", "name": "bn3d_branch2c"}, {"config": {"trainable": false, "name": "add_7"}, "inbound_nodes": [[["bn3d_branch2c", 0, 0, {}], ["activation_113", 0, 0, {}]]], "class_name": "Add", "name": "add_7"}, {"config": {"trainable": false, "name": "activation_116", "activation": "relu"}, "inbound_nodes": [[["add_7", 0, 0, {}]]], "class_name": "Activation", "name": "activation_116"}, {"config": {"use_bias": true, "kernel_size": [1, 1], "activity_regularizer": null, "name": "res4a_branch2a", "bias_constraint": null, "kernel_initializer": {"config": {"scale": 2.0, "mode": "fan_in", "seed": null, "distribution": "normal"}, "class_name": "VarianceScaling"}, "padding": "valid", "filters": 256, "trainable": false, "strides": [2, 2], "data_format": "channels_last", "dilation_rate": [1, 1], "kernel_regularizer": null, "bias_regularizer": null, "bias_initializer": {"config": {}, "class_name": "Zeros"}, "kernel_constraint": null, "activation": "linear"}, "inbound_nodes": [[["activation_116", 0, 0, {}]]], "class_name": "Conv2D", "name": "res4a_branch2a"}, {"config": {"scale": true, "beta_initializer": {"config": {}, "class_name": "Zeros"}, "center": true, "gamma_constraint": null, "momentum": 0.99, "gamma_initializer": {"config": {}, "class_name": "Ones"}, "moving_variance_initializer": {"config": {}, "class_name": "Ones"}, "gamma_regularizer": null, "epsilon": 0.001, "trainable": false, "beta_regularizer": null, "beta_constraint": null, "axis": 3, "name": "bn4a_branch2a", "moving_mean_initializer": {"config": {}, "class_name": "Zeros"}}, "inbound_nodes": [[["res4a_branch2a", 0, 0, {}]]], "class_name": "BatchNormalization", "name": "bn4a_branch2a"}, {"config": {"trainable": false, "name": "activation_117", "activation": "relu"}, "inbound_nodes": [[["bn4a_branch2a", 0, 0, {}]]], "class_name": "Activation", "name": "activation_117"}, {"config": {"use_bias": true, "kernel_size": [3, 3], "activity_regularizer": null, "name": "res4a_branch2b", "bias_constraint": null, "kernel_initializer": {"config": {"scale": 2.0, "mode": "fan_in", "seed": null, "distribution": "normal"}, "class_name": "VarianceScaling"}, "padding": "same", "filters": 256, "trainable": false, "strides": [1, 1], "data_format": "channels_last", "dilation_rate": [1, 1], "kernel_regularizer": null, "bias_regularizer": null, "bias_initializer": {"config": {}, "class_name": "Zeros"}, "kernel_constraint": null, "activation": "linear"}, "inbound_nodes": [[["activation_117", 0, 0, {}]]], "class_name": "Conv2D", "name": "res4a_branch2b"}, {"config": {"scale": true, "beta_initializer": {"config": {}, "class_name": "Zeros"}, "center": true, "gamma_constraint": null, "momentum": 0.99, "gamma_initializer": {"config": {}, "class_name": "Ones"}, "moving_variance_initializer": {"config": {}, "class_name": "Ones"}, "gamma_regularizer": null, "epsilon": 0.001, "trainable": false, "beta_regularizer": null, "beta_constraint": null, "axis": 3, "name": "bn4a_branch2b", "moving_mean_initializer": {"config": {}, "class_name": "Zeros"}}, "inbound_nodes": [[["res4a_branch2b", 0, 0, {}]]], "class_name": "BatchNormalization", "name": "bn4a_branch2b"}, {"config": {"trainable": false, "name": "activation_118", "activation": "relu"}, "inbound_nodes": [[["bn4a_branch2b", 0, 0, {}]]], "class_name": "Activation", "name": "activation_118"}, {"config": {"use_bias": true, "kernel_size": [1, 1], "activity_regularizer": null, "name": "res4a_branch2c", "bias_constraint": null, "kernel_initializer": {"config": {"scale": 2.0, "mode": "fan_in", "seed": null, "distribution": "normal"}, "class_name": "VarianceScaling"}, "padding": "valid", "filters": 1024, "trainable": false, "strides": [1, 1], "data_format": "channels_last", "dilation_rate": [1, 1], "kernel_regularizer": null, "bias_regularizer": null, "bias_initializer": {"config": {}, "class_name": "Zeros"}, "kernel_constraint": null, "activation": "linear"}, "inbound_nodes": [[["activation_118", 0, 0, {}]]], "class_name": "Conv2D", "name": "res4a_branch2c"}, {"config": {"use_bias": true, "kernel_size": [1, 1], "activity_regularizer": null, "name": "res4a_branch1", "bias_constraint": null, "kernel_initializer": {"config": {"scale": 2.0, "mode": "fan_in", "seed": null, "distribution": "normal"}, "class_name": "VarianceScaling"}, "padding": "valid", "filters": 1024, "trainable": false, "strides": [2, 2], "data_format": "channels_last", "dilation_rate": [1, 1], "kernel_regularizer": null, "bias_regularizer": null, "bias_initializer": {"config": {}, "class_name": "Zeros"}, "kernel_constraint": null, "activation": "linear"}, "inbound_nodes": [[["activation_116", 0, 0, {}]]], "class_name": "Conv2D", "name": "res4a_branch1"}, {"config": {"scale": true, "beta_initializer": {"config": {}, "class_name": "Zeros"}, "center": true, "gamma_constraint": null, "momentum": 0.99, "gamma_initializer": {"config": {}, "class_name": "Ones"}, "moving_variance_initializer": {"config": {}, "class_name": "Ones"}, "gamma_regularizer": null, "epsilon": 0.001, "trainable": false, "beta_regularizer": null, "beta_constraint": null, "axis": 3, "name": "bn4a_branch2c", "moving_mean_initializer": {"config": {}, "class_name": "Zeros"}}, "inbound_nodes": [[["res4a_branch2c", 0, 0, {}]]], "class_name": "BatchNormalization", "name": "bn4a_branch2c"}, {"config": {"scale": true, "beta_initializer": {"config": {}, "class_name": "Zeros"}, "center": true, "gamma_constraint": null, "momentum": 0.99, "gamma_initializer": {"config": {}, "class_name": "Ones"}, "moving_variance_initializer": {"config": {}, "class_name": "Ones"}, "gamma_regularizer": null, "epsilon": 0.001, "trainable": false, "beta_regularizer": null, "beta_constraint": null, "axis": 3, "name": "bn4a_branch1", "moving_mean_initializer": {"config": {}, "class_name": "Zeros"}}, "inbound_nodes": [[["res4a_branch1", 0, 0, {}]]], "class_name": "BatchNormalization", "name": "bn4a_branch1"}, {"config": {"trainable": false, "name": "add_8"}, "inbound_nodes": [[["bn4a_branch2c", 0, 0, {}], ["bn4a_branch1", 0, 0, {}]]], "class_name": "Add", "name": "add_8"}, {"config": {"trainable": false, "name": "activation_119", "activation": "relu"}, "inbound_nodes": [[["add_8", 0, 0, {}]]], "class_name": "Activation", "name": "activation_119"}, {"config": {"use_bias": true, "kernel_size": [1, 1], "activity_regularizer": null, "name": "res4b_branch2a", "bias_constraint": null, "kernel_initializer": {"config": {"scale": 2.0, "mode": "fan_in", "seed": null, "distribution": "normal"}, "class_name": "VarianceScaling"}, "padding": "valid", "filters": 256, "trainable": false, "strides": [1, 1], "data_format": "channels_last", "dilation_rate": [1, 1], "kernel_regularizer": null, "bias_regularizer": null, "bias_initializer": {"config": {}, "class_name": "Zeros"}, "kernel_constraint": null, "activation": "linear"}, "inbound_nodes": [[["activation_119", 0, 0, {}]]], "class_name": "Conv2D", "name": "res4b_branch2a"}, {"config": {"scale": true, "beta_initializer": {"config": {}, "class_name": "Zeros"}, "center": true, "gamma_constraint": null, "momentum": 0.99, "gamma_initializer": {"config": {}, "class_name": "Ones"}, "moving_variance_initializer": {"config": {}, "class_name": "Ones"}, "gamma_regularizer": null, "epsilon": 0.001, "trainable": false, "beta_regularizer": null, "beta_constraint": null, "axis": 3, "name": "bn4b_branch2a", "moving_mean_initializer": {"config": {}, "class_name": "Zeros"}}, "inbound_nodes": [[["res4b_branch2a", 0, 0, {}]]], "class_name": "BatchNormalization", "name": "bn4b_branch2a"}, {"config": {"trainable": false, "name": "activation_120", "activation": "relu"}, "inbound_nodes": [[["bn4b_branch2a", 0, 0, {}]]], "class_name": "Activation", "name": "activation_120"}, {"config": {"use_bias": true, "kernel_size": [3, 3], "activity_regularizer": null, "name": "res4b_branch2b", "bias_constraint": null, "kernel_initializer": {"config": {"scale": 2.0, "mode": "fan_in", "seed": null, "distribution": "normal"}, "class_name": "VarianceScaling"}, "padding": "same", "filters": 256, "trainable": false, "strides": [1, 1], "data_format": "channels_last", "dilation_rate": [1, 1], "kernel_regularizer": null, "bias_regularizer": null, "bias_initializer": {"config": {}, "class_name": "Zeros"}, "kernel_constraint": null, "activation": "linear"}, "inbound_nodes": [[["activation_120", 0, 0, {}]]], "class_name": "Conv2D", "name": "res4b_branch2b"}, {"config": {"scale": true, "beta_initializer": {"config": {}, "class_name": "Zeros"}, "center": true, "gamma_constraint": null, "momentum": 0.99, "gamma_initializer": {"config": {}, "class_name": "Ones"}, "moving_variance_initializer": {"config": {}, "class_name": "Ones"}, "gamma_regularizer": null, "epsilon": 0.001, "trainable": false, "beta_regularizer": null, "beta_constraint": null, "axis": 3, "name": "bn4b_branch2b", "moving_mean_initializer": {"config": {}, "class_name": "Zeros"}}, "inbound_nodes": [[["res4b_branch2b", 0, 0, {}]]], "class_name": "BatchNormalization", "name": "bn4b_branch2b"}, {"config": {"trainable": false, "name": "activation_121", "activation": "relu"}, "inbound_nodes": [[["bn4b_branch2b", 0, 0, {}]]], "class_name": "Activation", "name": "activation_121"}, {"config": {"use_bias": true, "kernel_size": [1, 1], "activity_regularizer": null, "name": "res4b_branch2c", "bias_constraint": null, "kernel_initializer": {"config": {"scale": 2.0, "mode": "fan_in", "seed": null, "distribution": "normal"}, "class_name": "VarianceScaling"}, "padding": "valid", "filters": 1024, "trainable": false, "strides": [1, 1], "data_format": "channels_last", "dilation_rate": [1, 1], "kernel_regularizer": null, "bias_regularizer": null, "bias_initializer": {"config": {}, "class_name": "Zeros"}, "kernel_constraint": null, "activation": "linear"}, "inbound_nodes": [[["activation_121", 0, 0, {}]]], "class_name": "Conv2D", "name": "res4b_branch2c"}, {"config": {"scale": true, "beta_initializer": {"config": {}, "class_name": "Zeros"}, "center": true, "gamma_constraint": null, "momentum": 0.99, "gamma_initializer": {"config": {}, "class_name": "Ones"}, "moving_variance_initializer": {"config": {}, "class_name": "Ones"}, "gamma_regularizer": null, "epsilon": 0.001, "trainable": false, "beta_regularizer": null, "beta_constraint": null, "axis": 3, "name": "bn4b_branch2c", "moving_mean_initializer": {"config": {}, "class_name": "Zeros"}}, "inbound_nodes": [[["res4b_branch2c", 0, 0, {}]]], "class_name": "BatchNormalization", "name": "bn4b_branch2c"}, {"config": {"trainable": false, "name": "add_9"}, "inbound_nodes": [[["bn4b_branch2c", 0, 0, {}], ["activation_119", 0, 0, {}]]], "class_name": "Add", "name": "add_9"}, {"config": {"trainable": false, "name": "activation_122", "activation": "relu"}, "inbound_nodes": [[["add_9", 0, 0, {}]]], "class_name": "Activation", "name": "activation_122"}, {"config": {"use_bias": true, "kernel_size": [1, 1], "activity_regularizer": null, "name": "res4c_branch2a", "bias_constraint": null, "kernel_initializer": {"config": {"scale": 2.0, "mode": "fan_in", "seed": null, "distribution": "normal"}, "class_name": "VarianceScaling"}, "padding": "valid", "filters": 256, "trainable": false, "strides": [1, 1], "data_format": "channels_last", "dilation_rate": [1, 1], "kernel_regularizer": null, "bias_regularizer": null, "bias_initializer": {"config": {}, "class_name": "Zeros"}, "kernel_constraint": null, "activation": "linear"}, "inbound_nodes": [[["activation_122", 0, 0, {}]]], "class_name": "Conv2D", "name": "res4c_branch2a"}, {"config": {"scale": true, "beta_initializer": {"config": {}, "class_name": "Zeros"}, "center": true, "gamma_constraint": null, "momentum": 0.99, "gamma_initializer": {"config": {}, "class_name": "Ones"}, "moving_variance_initializer": {"config": {}, "class_name": "Ones"}, "gamma_regularizer": null, "epsilon": 0.001, "trainable": false, "beta_regularizer": null, "beta_constraint": null, "axis": 3, "name": "bn4c_branch2a", "moving_mean_initializer": {"config": {}, "class_name": "Zeros"}}, "inbound_nodes": [[["res4c_branch2a", 0, 0, {}]]], "class_name": "BatchNormalization", "name": "bn4c_branch2a"}, {"config": {"trainable": false, "name": "activation_123", "activation": "relu"}, "inbound_nodes": [[["bn4c_branch2a", 0, 0, {}]]], "class_name": "Activation", "name": "activation_123"}, {"config": {"use_bias": true, "kernel_size": [3, 3], "activity_regularizer": null, "name": "res4c_branch2b", "bias_constraint": null, "kernel_initializer": {"config": {"scale": 2.0, "mode": "fan_in", "seed": null, "distribution": "normal"}, "class_name": "VarianceScaling"}, "padding": "same", "filters": 256, "trainable": false, "strides": [1, 1], "data_format": "channels_last", "dilation_rate": [1, 1], "kernel_regularizer": null, "bias_regularizer": null, "bias_initializer": {"config": {}, "class_name": "Zeros"}, "kernel_constraint": null, "activation": "linear"}, "inbound_nodes": [[["activation_123", 0, 0, {}]]], "class_name": "Conv2D", "name": "res4c_branch2b"}, {"config": {"scale": true, "beta_initializer": {"config": {}, "class_name": "Zeros"}, "center": true, "gamma_constraint": null, "momentum": 0.99, "gamma_initializer": {"config": {}, "class_name": "Ones"}, "moving_variance_initializer": {"config": {}, "class_name": "Ones"}, "gamma_regularizer": null, "epsilon": 0.001, "trainable": false, "beta_regularizer": null, "beta_constraint": null, "axis": 3, "name": "bn4c_branch2b", "moving_mean_initializer": {"config": {}, "class_name": "Zeros"}}, "inbound_nodes": [[["res4c_branch2b", 0, 0, {}]]], "class_name": "BatchNormalization", "name": "bn4c_branch2b"}, {"config": {"trainable": false, "name": "activation_124", "activation": "relu"}, "inbound_nodes": [[["bn4c_branch2b", 0, 0, {}]]], "class_name": "Activation", "name": "activation_124"}, {"config": {"use_bias": true, "kernel_size": [1, 1], "activity_regularizer": null, "name": "res4c_branch2c", "bias_constraint": null, "kernel_initializer": {"config": {"scale": 2.0, "mode": "fan_in", "seed": null, "distribution": "normal"}, "class_name": "VarianceScaling"}, "padding": "valid", "filters": 1024, "trainable": false, "strides": [1, 1], "data_format": "channels_last", "dilation_rate": [1, 1], "kernel_regularizer": null, "bias_regularizer": null, "bias_initializer": {"config": {}, "class_name": "Zeros"}, "kernel_constraint": null, "activation": "linear"}, "inbound_nodes": [[["activation_124", 0, 0, {}]]], "class_name": "Conv2D", "name": "res4c_branch2c"}, {"config": {"scale": true, "beta_initializer": {"config": {}, "class_name": "Zeros"}, "center": true, "gamma_constraint": null, "momentum": 0.99, "gamma_initializer": {"config": {}, "class_name": "Ones"}, "moving_variance_initializer": {"config": {}, "class_name": "Ones"}, "gamma_regularizer": null, "epsilon": 0.001, "trainable": false, "beta_regularizer": null, "beta_constraint": null, "axis": 3, "name": "bn4c_branch2c", "moving_mean_initializer": {"config": {}, "class_name": "Zeros"}}, "inbound_nodes": [[["res4c_branch2c", 0, 0, {}]]], "class_name": "BatchNormalization", "name": "bn4c_branch2c"}, {"config": {"trainable": false, "name": "add_10"}, "inbound_nodes": [[["bn4c_branch2c", 0, 0, {}], ["activation_122", 0, 0, {}]]], "class_name": "Add", "name": "add_10"}, {"config": {"trainable": false, "name": "activation_125", "activation": "relu"}, "inbound_nodes": [[["add_10", 0, 0, {}]]], "class_name": "Activation", "name": "activation_125"}, {"config": {"use_bias": true, "kernel_size": [1, 1], "activity_regularizer": null, "name": "res4d_branch2a", "bias_constraint": null, "kernel_initializer": {"config": {"scale": 2.0, "mode": "fan_in", "seed": null, "distribution": "normal"}, "class_name": "VarianceScaling"}, "padding": "valid", "filters": 256, "trainable": false, "strides": [1, 1], "data_format": "channels_last", "dilation_rate": [1, 1], "kernel_regularizer": null, "bias_regularizer": null, "bias_initializer": {"config": {}, "class_name": "Zeros"}, "kernel_constraint": null, "activation": "linear"}, "inbound_nodes": [[["activation_125", 0, 0, {}]]], "class_name": "Conv2D", "name": "res4d_branch2a"}, {"config": {"scale": true, "beta_initializer": {"config": {}, "class_name": "Zeros"}, "center": true, "gamma_constraint": null, "momentum": 0.99, "gamma_initializer": {"config": {}, "class_name": "Ones"}, "moving_variance_initializer": {"config": {}, "class_name": "Ones"}, "gamma_regularizer": null, "epsilon": 0.001, "trainable": false, "beta_regularizer": null, "beta_constraint": null, "axis": 3, "name": "bn4d_branch2a", "moving_mean_initializer": {"config": {}, "class_name": "Zeros"}}, "inbound_nodes": [[["res4d_branch2a", 0, 0, {}]]], "class_name": "BatchNormalization", "name": "bn4d_branch2a"}, {"config": {"trainable": false, "name": "activation_126", "activation": "relu"}, "inbound_nodes": [[["bn4d_branch2a", 0, 0, {}]]], "class_name": "Activation", "name": "activation_126"}, {"config": {"use_bias": true, "kernel_size": [3, 3], "activity_regularizer": null, "name": "res4d_branch2b", "bias_constraint": null, "kernel_initializer": {"config": {"scale": 2.0, "mode": "fan_in", "seed": null, "distribution": "normal"}, "class_name": "VarianceScaling"}, "padding": "same", "filters": 256, "trainable": false, "strides": [1, 1], "data_format": "channels_last", "dilation_rate": [1, 1], "kernel_regularizer": null, "bias_regularizer": null, "bias_initializer": {"config": {}, "class_name": "Zeros"}, "kernel_constraint": null, "activation": "linear"}, "inbound_nodes": [[["activation_126", 0, 0, {}]]], "class_name": "Conv2D", "name": "res4d_branch2b"}, {"config": {"scale": true, "beta_initializer": {"config": {}, "class_name": "Zeros"}, "center": true, "gamma_constraint": null, "momentum": 0.99, "gamma_initializer": {"config": {}, "class_name": "Ones"}, "moving_variance_initializer": {"config": {}, "class_name": "Ones"}, "gamma_regularizer": null, "epsilon": 0.001, "trainable": false, "beta_regularizer": null, "beta_constraint": null, "axis": 3, "name": "bn4d_branch2b", "moving_mean_initializer": {"config": {}, "class_name": "Zeros"}}, "inbound_nodes": [[["res4d_branch2b", 0, 0, {}]]], "class_name": "BatchNormalization", "name": "bn4d_branch2b"}, {"config": {"trainable": false, "name": "activation_127", "activation": "relu"}, "inbound_nodes": [[["bn4d_branch2b", 0, 0, {}]]], "class_name": "Activation", "name": "activation_127"}, {"config": {"use_bias": true, "kernel_size": [1, 1], "activity_regularizer": null, "name": "res4d_branch2c", "bias_constraint": null, "kernel_initializer": {"config": {"scale": 2.0, "mode": "fan_in", "seed": null, "distribution": "normal"}, "class_name": "VarianceScaling"}, "padding": "valid", "filters": 1024, "trainable": false, "strides": [1, 1], "data_format": "channels_last", "dilation_rate": [1, 1], "kernel_regularizer": null, "bias_regularizer": null, "bias_initializer": {"config": {}, "class_name": "Zeros"}, "kernel_constraint": null, "activation": "linear"}, "inbound_nodes": [[["activation_127", 0, 0, {}]]], "class_name": "Conv2D", "name": "res4d_branch2c"}, {"config": {"scale": true, "beta_initializer": {"config": {}, "class_name": "Zeros"}, "center": true, "gamma_constraint": null, "momentum": 0.99, "gamma_initializer": {"config": {}, "class_name": "Ones"}, "moving_variance_initializer": {"config": {}, "class_name": "Ones"}, "gamma_regularizer": null, "epsilon": 0.001, "trainable": false, "beta_regularizer": null, "beta_constraint": null, "axis": 3, "name": "bn4d_branch2c", "moving_mean_initializer": {"config": {}, "class_name": "Zeros"}}, "inbound_nodes": [[["res4d_branch2c", 0, 0, {}]]], "class_name": "BatchNormalization", "name": "bn4d_branch2c"}, {"config": {"trainable": false, "name": "add_11"}, "inbound_nodes": [[["bn4d_branch2c", 0, 0, {}], ["activation_125", 0, 0, {}]]], "class_name": "Add", "name": "add_11"}, {"config": {"trainable": false, "name": "activation_128", "activation": "relu"}, "inbound_nodes": [[["add_11", 0, 0, {}]]], "class_name": "Activation", "name": "activation_128"}, {"config": {"use_bias": true, "kernel_size": [1, 1], "activity_regularizer": null, "name": "res4e_branch2a", "bias_constraint": null, "kernel_initializer": {"config": {"scale": 2.0, "mode": "fan_in", "seed": null, "distribution": "normal"}, "class_name": "VarianceScaling"}, "padding": "valid", "filters": 256, "trainable": false, "strides": [1, 1], "data_format": "channels_last", "dilation_rate": [1, 1], "kernel_regularizer": null, "bias_regularizer": null, "bias_initializer": {"config": {}, "class_name": "Zeros"}, "kernel_constraint": null, "activation": "linear"}, "inbound_nodes": [[["activation_128", 0, 0, {}]]], "class_name": "Conv2D", "name": "res4e_branch2a"}, {"config": {"scale": true, "beta_initializer": {"config": {}, "class_name": "Zeros"}, "center": true, "gamma_constraint": null, "momentum": 0.99, "gamma_initializer": {"config": {}, "class_name": "Ones"}, "moving_variance_initializer": {"config": {}, "class_name": "Ones"}, "gamma_regularizer": null, "epsilon": 0.001, "trainable": false, "beta_regularizer": null, "beta_constraint": null, "axis": 3, "name": "bn4e_branch2a", "moving_mean_initializer": {"config": {}, "class_name": "Zeros"}}, "inbound_nodes": [[["res4e_branch2a", 0, 0, {}]]], "class_name": "BatchNormalization", "name": "bn4e_branch2a"}, {"config": {"trainable": false, "name": "activation_129", "activation": "relu"}, "inbound_nodes": [[["bn4e_branch2a", 0, 0, {}]]], "class_name": "Activation", "name": "activation_129"}, {"config": {"use_bias": true, "kernel_size": [3, 3], "activity_regularizer": null, "name": "res4e_branch2b", "bias_constraint": null, "kernel_initializer": {"config": {"scale": 2.0, "mode": "fan_in", "seed": null, "distribution": "normal"}, "class_name": "VarianceScaling"}, "padding": "same", "filters": 256, "trainable": false, "strides": [1, 1], "data_format": "channels_last", "dilation_rate": [1, 1], "kernel_regularizer": null, "bias_regularizer": null, "bias_initializer": {"config": {}, "class_name": "Zeros"}, "kernel_constraint": null, "activation": "linear"}, "inbound_nodes": [[["activation_129", 0, 0, {}]]], "class_name": "Conv2D", "name": "res4e_branch2b"}, {"config": {"scale": true, "beta_initializer": {"config": {}, "class_name": "Zeros"}, "center": true, "gamma_constraint": null, "momentum": 0.99, "gamma_initializer": {"config": {}, "class_name": "Ones"}, "moving_variance_initializer": {"config": {}, "class_name": "Ones"}, "gamma_regularizer": null, "epsilon": 0.001, "trainable": false, "beta_regularizer": null, "beta_constraint": null, "axis": 3, "name": "bn4e_branch2b", "moving_mean_initializer": {"config": {}, "class_name": "Zeros"}}, "inbound_nodes": [[["res4e_branch2b", 0, 0, {}]]], "class_name": "BatchNormalization", "name": "bn4e_branch2b"}, {"config": {"trainable": false, "name": "activation_130", "activation": "relu"}, "inbound_nodes": [[["bn4e_branch2b", 0, 0, {}]]], "class_name": "Activation", "name": "activation_130"}, {"config": {"use_bias": true, "kernel_size": [1, 1], "activity_regularizer": null, "name": "res4e_branch2c", "bias_constraint": null, "kernel_initializer": {"config": {"scale": 2.0, "mode": "fan_in", "seed": null, "distribution": "normal"}, "class_name": "VarianceScaling"}, "padding": "valid", "filters": 1024, "trainable": false, "strides": [1, 1], "data_format": "channels_last", "dilation_rate": [1, 1], "kernel_regularizer": null, "bias_regularizer": null, "bias_initializer": {"config": {}, "class_name": "Zeros"}, "kernel_constraint": null, "activation": "linear"}, "inbound_nodes": [[["activation_130", 0, 0, {}]]], "class_name": "Conv2D", "name": "res4e_branch2c"}, {"config": {"scale": true, "beta_initializer": {"config": {}, "class_name": "Zeros"}, "center": true, "gamma_constraint": null, "momentum": 0.99, "gamma_initializer": {"config": {}, "class_name": "Ones"}, "moving_variance_initializer": {"config": {}, "class_name": "Ones"}, "gamma_regularizer": null, "epsilon": 0.001, "trainable": false, "beta_regularizer": null, "beta_constraint": null, "axis": 3, "name": "bn4e_branch2c", "moving_mean_initializer": {"config": {}, "class_name": "Zeros"}}, "inbound_nodes": [[["res4e_branch2c", 0, 0, {}]]], "class_name": "BatchNormalization", "name": "bn4e_branch2c"}, {"config": {"trainable": false, "name": "add_12"}, "inbound_nodes": [[["bn4e_branch2c", 0, 0, {}], ["activation_128", 0, 0, {}]]], "class_name": "Add", "name": "add_12"}, {"config": {"trainable": false, "name": "activation_131", "activation": "relu"}, "inbound_nodes": [[["add_12", 0, 0, {}]]], "class_name": "Activation", "name": "activation_131"}, {"config": {"use_bias": true, "kernel_size": [1, 1], "activity_regularizer": null, "name": "res4f_branch2a", "bias_constraint": null, "kernel_initializer": {"config": {"scale": 2.0, "mode": "fan_in", "seed": null, "distribution": "normal"}, "class_name": "VarianceScaling"}, "padding": "valid", "filters": 256, "trainable": false, "strides": [1, 1], "data_format": "channels_last", "dilation_rate": [1, 1], "kernel_regularizer": null, "bias_regularizer": null, "bias_initializer": {"config": {}, "class_name": "Zeros"}, "kernel_constraint": null, "activation": "linear"}, "inbound_nodes": [[["activation_131", 0, 0, {}]]], "class_name": "Conv2D", "name": "res4f_branch2a"}, {"config": {"scale": true, "beta_initializer": {"config": {}, "class_name": "Zeros"}, "center": true, "gamma_constraint": null, "momentum": 0.99, "gamma_initializer": {"config": {}, "class_name": "Ones"}, "moving_variance_initializer": {"config": {}, "class_name": "Ones"}, "gamma_regularizer": null, "epsilon": 0.001, "trainable": false, "beta_regularizer": null, "beta_constraint": null, "axis": 3, "name": "bn4f_branch2a", "moving_mean_initializer": {"config": {}, "class_name": "Zeros"}}, "inbound_nodes": [[["res4f_branch2a", 0, 0, {}]]], "class_name": "BatchNormalization", "name": "bn4f_branch2a"}, {"config": {"trainable": false, "name": "activation_132", "activation": "relu"}, "inbound_nodes": [[["bn4f_branch2a", 0, 0, {}]]], "class_name": "Activation", "name": "activation_132"}, {"config": {"use_bias": true, "kernel_size": [3, 3], "activity_regularizer": null, "name": "res4f_branch2b", "bias_constraint": null, "kernel_initializer": {"config": {"scale": 2.0, "mode": "fan_in", "seed": null, "distribution": "normal"}, "class_name": "VarianceScaling"}, "padding": "same", "filters": 256, "trainable": false, "strides": [1, 1], "data_format": "channels_last", "dilation_rate": [1, 1], "kernel_regularizer": null, "bias_regularizer": null, "bias_initializer": {"config": {}, "class_name": "Zeros"}, "kernel_constraint": null, "activation": "linear"}, "inbound_nodes": [[["activation_132", 0, 0, {}]]], "class_name": "Conv2D", "name": "res4f_branch2b"}, {"config": {"scale": true, "beta_initializer": {"config": {}, "class_name": "Zeros"}, "center": true, "gamma_constraint": null, "momentum": 0.99, "gamma_initializer": {"config": {}, "class_name": "Ones"}, "moving_variance_initializer": {"config": {}, "class_name": "Ones"}, "gamma_regularizer": null, "epsilon": 0.001, "trainable": false, "beta_regularizer": null, "beta_constraint": null, "axis": 3, "name": "bn4f_branch2b", "moving_mean_initializer": {"config": {}, "class_name": "Zeros"}}, "inbound_nodes": [[["res4f_branch2b", 0, 0, {}]]], "class_name": "BatchNormalization", "name": "bn4f_branch2b"}, {"config": {"trainable": false, "name": "activation_133", "activation": "relu"}, "inbound_nodes": [[["bn4f_branch2b", 0, 0, {}]]], "class_name": "Activation", "name": "activation_133"}, {"config": {"use_bias": true, "kernel_size": [1, 1], "activity_regularizer": null, "name": "res4f_branch2c", "bias_constraint": null, "kernel_initializer": {"config": {"scale": 2.0, "mode": "fan_in", "seed": null, "distribution": "normal"}, "class_name": "VarianceScaling"}, "padding": "valid", "filters": 1024, "trainable": false, "strides": [1, 1], "data_format": "channels_last", "dilation_rate": [1, 1], "kernel_regularizer": null, "bias_regularizer": null, "bias_initializer": {"config": {}, "class_name": "Zeros"}, "kernel_constraint": null, "activation": "linear"}, "inbound_nodes": [[["activation_133", 0, 0, {}]]], "class_name": "Conv2D", "name": "res4f_branch2c"}, {"config": {"scale": true, "beta_initializer": {"config": {}, "class_name": "Zeros"}, "center": true, "gamma_constraint": null, "momentum": 0.99, "gamma_initializer": {"config": {}, "class_name": "Ones"}, "moving_variance_initializer": {"config": {}, "class_name": "Ones"}, "gamma_regularizer": null, "epsilon": 0.001, "trainable": false, "beta_regularizer": null, "beta_constraint": null, "axis": 3, "name": "bn4f_branch2c", "moving_mean_initializer": {"config": {}, "class_name": "Zeros"}}, "inbound_nodes": [[["res4f_branch2c", 0, 0, {}]]], "class_name": "BatchNormalization", "name": "bn4f_branch2c"}, {"config": {"trainable": false, "name": "add_13"}, "inbound_nodes": [[["bn4f_branch2c", 0, 0, {}], ["activation_131", 0, 0, {}]]], "class_name": "Add", "name": "add_13"}, {"config": {"trainable": false, "name": "activation_134", "activation": "relu"}, "inbound_nodes": [[["add_13", 0, 0, {}]]], "class_name": "Activation", "name": "activation_134"}, {"config": {"use_bias": true, "kernel_size": [1, 1], "activity_regularizer": null, "name": "res5a_branch2a", "bias_constraint": null, "kernel_initializer": {"config": {"scale": 2.0, "mode": "fan_in", "seed": null, "distribution": "normal"}, "class_name": "VarianceScaling"}, "padding": "valid", "filters": 512, "trainable": false, "strides": [2, 2], "data_format": "channels_last", "dilation_rate": [1, 1], "kernel_regularizer": null, "bias_regularizer": null, "bias_initializer": {"config": {}, "class_name": "Zeros"}, "kernel_constraint": null, "activation": "linear"}, "inbound_nodes": [[["activation_134", 0, 0, {}]]], "class_name": "Conv2D", "name": "res5a_branch2a"}, {"config": {"scale": true, "beta_initializer": {"config": {}, "class_name": "Zeros"}, "center": true, "gamma_constraint": null, "momentum": 0.99, "gamma_initializer": {"config": {}, "class_name": "Ones"}, "moving_variance_initializer": {"config": {}, "class_name": "Ones"}, "gamma_regularizer": null, "epsilon": 0.001, "trainable": false, "beta_regularizer": null, "beta_constraint": null, "axis": 3, "name": "bn5a_branch2a", "moving_mean_initializer": {"config": {}, "class_name": "Zeros"}}, "inbound_nodes": [[["res5a_branch2a", 0, 0, {}]]], "class_name": "BatchNormalization", "name": "bn5a_branch2a"}, {"config": {"trainable": false, "name": "activation_135", "activation": "relu"}, "inbound_nodes": [[["bn5a_branch2a", 0, 0, {}]]], "class_name": "Activation", "name": "activation_135"}, {"config": {"use_bias": true, "kernel_size": [3, 3], "activity_regularizer": null, "name": "res5a_branch2b", "bias_constraint": null, "kernel_initializer": {"config": {"scale": 2.0, "mode": "fan_in", "seed": null, "distribution": "normal"}, "class_name": "VarianceScaling"}, "padding": "same", "filters": 512, "trainable": false, "strides": [1, 1], "data_format": "channels_last", "dilation_rate": [1, 1], "kernel_regularizer": null, "bias_regularizer": null, "bias_initializer": {"config": {}, "class_name": "Zeros"}, "kernel_constraint": null, "activation": "linear"}, "inbound_nodes": [[["activation_135", 0, 0, {}]]], "class_name": "Conv2D", "name": "res5a_branch2b"}, {"config": {"scale": true, "beta_initializer": {"config": {}, "class_name": "Zeros"}, "center": true, "gamma_constraint": null, "momentum": 0.99, "gamma_initializer": {"config": {}, "class_name": "Ones"}, "moving_variance_initializer": {"config": {}, "class_name": "Ones"}, "gamma_regularizer": null, "epsilon": 0.001, "trainable": false, "beta_regularizer": null, "beta_constraint": null, "axis": 3, "name": "bn5a_branch2b", "moving_mean_initializer": {"config": {}, "class_name": "Zeros"}}, "inbound_nodes": [[["res5a_branch2b", 0, 0, {}]]], "class_name": "BatchNormalization", "name": "bn5a_branch2b"}, {"config": {"trainable": false, "name": "activation_136", "activation": "relu"}, "inbound_nodes": [[["bn5a_branch2b", 0, 0, {}]]], "class_name": "Activation", "name": "activation_136"}, {"config": {"use_bias": true, "kernel_size": [1, 1], "activity_regularizer": null, "name": "res5a_branch2c", "bias_constraint": null, "kernel_initializer": {"config": {"scale": 2.0, "mode": "fan_in", "seed": null, "distribution": "normal"}, "class_name": "VarianceScaling"}, "padding": "valid", "filters": 2048, "trainable": false, "strides": [1, 1], "data_format": "channels_last", "dilation_rate": [1, 1], "kernel_regularizer": null, "bias_regularizer": null, "bias_initializer": {"config": {}, "class_name": "Zeros"}, "kernel_constraint": null, "activation": "linear"}, "inbound_nodes": [[["activation_136", 0, 0, {}]]], "class_name": "Conv2D", "name": "res5a_branch2c"}, {"config": {"use_bias": true, "kernel_size": [1, 1], "activity_regularizer": null, "name": "res5a_branch1", "bias_constraint": null, "kernel_initializer": {"config": {"scale": 2.0, "mode": "fan_in", "seed": null, "distribution": "normal"}, "class_name": "VarianceScaling"}, "padding": "valid", "filters": 2048, "trainable": false, "strides": [2, 2], "data_format": "channels_last", "dilation_rate": [1, 1], "kernel_regularizer": null, "bias_regularizer": null, "bias_initializer": {"config": {}, "class_name": "Zeros"}, "kernel_constraint": null, "activation": "linear"}, "inbound_nodes": [[["activation_134", 0, 0, {}]]], "class_name": "Conv2D", "name": "res5a_branch1"}, {"config": {"scale": true, "beta_initializer": {"config": {}, "class_name": "Zeros"}, "center": true, "gamma_constraint": null, "momentum": 0.99, "gamma_initializer": {"config": {}, "class_name": "Ones"}, "moving_variance_initializer": {"config": {}, "class_name": "Ones"}, "gamma_regularizer": null, "epsilon": 0.001, "trainable": false, "beta_regularizer": null, "beta_constraint": null, "axis": 3, "name": "bn5a_branch2c", "moving_mean_initializer": {"config": {}, "class_name": "Zeros"}}, "inbound_nodes": [[["res5a_branch2c", 0, 0, {}]]], "class_name": "BatchNormalization", "name": "bn5a_branch2c"}, {"config": {"scale": true, "beta_initializer": {"config": {}, "class_name": "Zeros"}, "center": true, "gamma_constraint": null, "momentum": 0.99, "gamma_initializer": {"config": {}, "class_name": "Ones"}, "moving_variance_initializer": {"config": {}, "class_name": "Ones"}, "gamma_regularizer": null, "epsilon": 0.001, "trainable": false, "beta_regularizer": null, "beta_constraint": null, "axis": 3, "name": "bn5a_branch1", "moving_mean_initializer": {"config": {}, "class_name": "Zeros"}}, "inbound_nodes": [[["res5a_branch1", 0, 0, {}]]], "class_name": "BatchNormalization", "name": "bn5a_branch1"}, {"config": {"trainable": false, "name": "add_14"}, "inbound_nodes": [[["bn5a_branch2c", 0, 0, {}], ["bn5a_branch1", 0, 0, {}]]], "class_name": "Add", "name": "add_14"}, {"config": {"trainable": false, "name": "activation_137", "activation": "relu"}, "inbound_nodes": [[["add_14", 0, 0, {}]]], "class_name": "Activation", "name": "activation_137"}, {"config": {"use_bias": true, "kernel_size": [1, 1], "activity_regularizer": null, "name": "res5b_branch2a", "bias_constraint": null, "kernel_initializer": {"config": {"scale": 2.0, "mode": "fan_in", "seed": null, "distribution": "normal"}, "class_name": "VarianceScaling"}, "padding": "valid", "filters": 512, "trainable": false, "strides": [1, 1], "data_format": "channels_last", "dilation_rate": [1, 1], "kernel_regularizer": null, "bias_regularizer": null, "bias_initializer": {"config": {}, "class_name": "Zeros"}, "kernel_constraint": null, "activation": "linear"}, "inbound_nodes": [[["activation_137", 0, 0, {}]]], "class_name": "Conv2D", "name": "res5b_branch2a"}, {"config": {"scale": true, "beta_initializer": {"config": {}, "class_name": "Zeros"}, "center": true, "gamma_constraint": null, "momentum": 0.99, "gamma_initializer": {"config": {}, "class_name": "Ones"}, "moving_variance_initializer": {"config": {}, "class_name": "Ones"}, "gamma_regularizer": null, "epsilon": 0.001, "trainable": false, "beta_regularizer": null, "beta_constraint": null, "axis": 3, "name": "bn5b_branch2a", "moving_mean_initializer": {"config": {}, "class_name": "Zeros"}}, "inbound_nodes": [[["res5b_branch2a", 0, 0, {}]]], "class_name": "BatchNormalization", "name": "bn5b_branch2a"}, {"config": {"trainable": false, "name": "activation_138", "activation": "relu"}, "inbound_nodes": [[["bn5b_branch2a", 0, 0, {}]]], "class_name": "Activation", "name": "activation_138"}, {"config": {"use_bias": true, "kernel_size": [3, 3], "activity_regularizer": null, "name": "res5b_branch2b", "bias_constraint": null, "kernel_initializer": {"config": {"scale": 2.0, "mode": "fan_in", "seed": null, "distribution": "normal"}, "class_name": "VarianceScaling"}, "padding": "same", "filters": 512, "trainable": false, "strides": [1, 1], "data_format": "channels_last", "dilation_rate": [1, 1], "kernel_regularizer": null, "bias_regularizer": null, "bias_initializer": {"config": {}, "class_name": "Zeros"}, "kernel_constraint": null, "activation": "linear"}, "inbound_nodes": [[["activation_138", 0, 0, {}]]], "class_name": "Conv2D", "name": "res5b_branch2b"}, {"config": {"scale": true, "beta_initializer": {"config": {}, "class_name": "Zeros"}, "center": true, "gamma_constraint": null, "momentum": 0.99, "gamma_initializer": {"config": {}, "class_name": "Ones"}, "moving_variance_initializer": {"config": {}, "class_name": "Ones"}, "gamma_regularizer": null, "epsilon": 0.001, "trainable": false, "beta_regularizer": null, "beta_constraint": null, "axis": 3, "name": "bn5b_branch2b", "moving_mean_initializer": {"config": {}, "class_name": "Zeros"}}, "inbound_nodes": [[["res5b_branch2b", 0, 0, {}]]], "class_name": "BatchNormalization", "name": "bn5b_branch2b"}, {"config": {"trainable": false, "name": "activation_139", "activation": "relu"}, "inbound_nodes": [[["bn5b_branch2b", 0, 0, {}]]], "class_name": "Activation", "name": "activation_139"}, {"config": {"use_bias": true, "kernel_size": [1, 1], "activity_regularizer": null, "name": "res5b_branch2c", "bias_constraint": null, "kernel_initializer": {"config": {"scale": 2.0, "mode": "fan_in", "seed": null, "distribution": "normal"}, "class_name": "VarianceScaling"}, "padding": "valid", "filters": 2048, "trainable": false, "strides": [1, 1], "data_format": "channels_last", "dilation_rate": [1, 1], "kernel_regularizer": null, "bias_regularizer": null, "bias_initializer": {"config": {}, "class_name": "Zeros"}, "kernel_constraint": null, "activation": "linear"}, "inbound_nodes": [[["activation_139", 0, 0, {}]]], "class_name": "Conv2D", "name": "res5b_branch2c"}, {"config": {"scale": true, "beta_initializer": {"config": {}, "class_name": "Zeros"}, "center": true, "gamma_constraint": null, "momentum": 0.99, "gamma_initializer": {"config": {}, "class_name": "Ones"}, "moving_variance_initializer": {"config": {}, "class_name": "Ones"}, "gamma_regularizer": null, "epsilon": 0.001, "trainable": false, "beta_regularizer": null, "beta_constraint": null, "axis": 3, "name": "bn5b_branch2c", "moving_mean_initializer": {"config": {}, "class_name": "Zeros"}}, "inbound_nodes": [[["res5b_branch2c", 0, 0, {}]]], "class_name": "BatchNormalization", "name": "bn5b_branch2c"}, {"config": {"trainable": false, "name": "add_15"}, "inbound_nodes": [[["bn5b_branch2c", 0, 0, {}], ["activation_137", 0, 0, {}]]], "class_name": "Add", "name": "add_15"}, {"config": {"trainable": false, "name": "activation_140", "activation": "relu"}, "inbound_nodes": [[["add_15", 0, 0, {}]]], "class_name": "Activation", "name": "activation_140"}, {"config": {"use_bias": true, "kernel_size": [1, 1], "activity_regularizer": null, "name": "res5c_branch2a", "bias_constraint": null, "kernel_initializer": {"config": {"scale": 2.0, "mode": "fan_in", "seed": null, "distribution": "normal"}, "class_name": "VarianceScaling"}, "padding": "valid", "filters": 512, "trainable": false, "strides": [1, 1], "data_format": "channels_last", "dilation_rate": [1, 1], "kernel_regularizer": null, "bias_regularizer": null, "bias_initializer": {"config": {}, "class_name": "Zeros"}, "kernel_constraint": null, "activation": "linear"}, "inbound_nodes": [[["activation_140", 0, 0, {}]]], "class_name": "Conv2D", "name": "res5c_branch2a"}, {"config": {"scale": true, "beta_initializer": {"config": {}, "class_name": "Zeros"}, "center": true, "gamma_constraint": null, "momentum": 0.99, "gamma_initializer": {"config": {}, "class_name": "Ones"}, "moving_variance_initializer": {"config": {}, "class_name": "Ones"}, "gamma_regularizer": null, "epsilon": 0.001, "trainable": false, "beta_regularizer": null, "beta_constraint": null, "axis": 3, "name": "bn5c_branch2a", "moving_mean_initializer": {"config": {}, "class_name": "Zeros"}}, "inbound_nodes": [[["res5c_branch2a", 0, 0, {}]]], "class_name": "BatchNormalization", "name": "bn5c_branch2a"}, {"config": {"trainable": false, "name": "activation_141", "activation": "relu"}, "inbound_nodes": [[["bn5c_branch2a", 0, 0, {}]]], "class_name": "Activation", "name": "activation_141"}, {"config": {"use_bias": true, "kernel_size": [3, 3], "activity_regularizer": null, "name": "res5c_branch2b", "bias_constraint": null, "kernel_initializer": {"config": {"scale": 2.0, "mode": "fan_in", "seed": null, "distribution": "normal"}, "class_name": "VarianceScaling"}, "padding": "same", "filters": 512, "trainable": false, "strides": [1, 1], "data_format": "channels_last", "dilation_rate": [1, 1], "kernel_regularizer": null, "bias_regularizer": null, "bias_initializer": {"config": {}, "class_name": "Zeros"}, "kernel_constraint": null, "activation": "linear"}, "inbound_nodes": [[["activation_141", 0, 0, {}]]], "class_name": "Conv2D", "name": "res5c_branch2b"}, {"config": {"scale": true, "beta_initializer": {"config": {}, "class_name": "Zeros"}, "center": true, "gamma_constraint": null, "momentum": 0.99, "gamma_initializer": {"config": {}, "class_name": "Ones"}, "moving_variance_initializer": {"config": {}, "class_name": "Ones"}, "gamma_regularizer": null, "epsilon": 0.001, "trainable": false, "beta_regularizer": null, "beta_constraint": null, "axis": 3, "name": "bn5c_branch2b", "moving_mean_initializer": {"config": {}, "class_name": "Zeros"}}, "inbound_nodes": [[["res5c_branch2b", 0, 0, {}]]], "class_name": "BatchNormalization", "name": "bn5c_branch2b"}, {"config": {"trainable": false, "name": "activation_142", "activation": "relu"}, "inbound_nodes": [[["bn5c_branch2b", 0, 0, {}]]], "class_name": "Activation", "name": "activation_142"}, {"config": {"use_bias": true, "kernel_size": [1, 1], "activity_regularizer": null, "name": "res5c_branch2c", "bias_constraint": null, "kernel_initializer": {"config": {"scale": 2.0, "mode": "fan_in", "seed": null, "distribution": "normal"}, "class_name": "VarianceScaling"}, "padding": "valid", "filters": 2048, "trainable": false, "strides": [1, 1], "data_format": "channels_last", "dilation_rate": [1, 1], "kernel_regularizer": null, "bias_regularizer": null, "bias_initializer": {"config": {}, "class_name": "Zeros"}, "kernel_constraint": null, "activation": "linear"}, "inbound_nodes": [[["activation_142", 0, 0, {}]]], "class_name": "Conv2D", "name": "res5c_branch2c"}, {"config": {"scale": true, "beta_initializer": {"config": {}, "class_name": "Zeros"}, "center": true, "gamma_constraint": null, "momentum": 0.99, "gamma_initializer": {"config": {}, "class_name": "Ones"}, "moving_variance_initializer": {"config": {}, "class_name": "Ones"}, "gamma_regularizer": null, "epsilon": 0.001, "trainable": false, "beta_regularizer": null, "beta_constraint": null, "axis": 3, "name": "bn5c_branch2c", "moving_mean_initializer": {"config": {}, "class_name": "Zeros"}}, "inbound_nodes": [[["res5c_branch2c", 0, 0, {}]]], "class_name": "BatchNormalization", "name": "bn5c_branch2c"}, {"config": {"trainable": false, "name": "add_16"}, "inbound_nodes": [[["bn5c_branch2c", 0, 0, {}], ["activation_140", 0, 0, {}]]], "class_name": "Add", "name": "add_16"}, {"config": {"trainable": false, "name": "activation_143", "activation": "relu"}, "inbound_nodes": [[["add_16", 0, 0, {}]]], "class_name": "Activation", "name": "activation_143"}, {"config": {"trainable": true, "name": "global_average_pooling2d_1", "data_format": "channels_last"}, "inbound_nodes": [[["activation_143", 0, 0, {}]]], "class_name": "GlobalAveragePooling2D", "name": "global_average_pooling2d_1"}, {"config": {"use_bias": true, "activity_regularizer": null, "name": "dense_1", "bias_constraint": null, "kernel_initializer": {"config": {"scale": 1.0, "mode": "fan_avg", "seed": null, "distribution": "uniform"}, "class_name": "VarianceScaling"}, "units": 128, "trainable": true, "kernel_regularizer": null, "bias_regularizer": null, "bias_initializer": {"config": {}, "class_name": "Zeros"}, "kernel_constraint": null, "activation": "relu"}, "inbound_nodes": [[["global_average_pooling2d_1", 0, 0, {}]]], "class_name": "Dense", "name": "dense_1"}, {"config": {"use_bias": true, "activity_regularizer": null, "name": "dense_2", "bias_constraint": null, "kernel_initializer": {"config": {"scale": 1.0, "mode": "fan_avg", "seed": null, "distribution": "uniform"}, "class_name": "VarianceScaling"}, "units": 26, "trainable": true, "kernel_regularizer": null, "bias_regularizer": null, "bias_initializer": {"config": {}, "class_name": "Zeros"}, "kernel_constraint": null, "activation": "softmax"}, "inbound_nodes": [[["dense_1", 0, 0, {}]]], "class_name": "Dense", "name": "dense_2"}], "output_layers": [["dense_2", 0, 0]]}, "backend": "tensorflow", "keras_version": "2.2.4", "class_name": "Model"}